Net(
  (attr_net): Net(
    (driverID_em): Embedding(24000, 16)
    (weekID_em): Embedding(7, 3)
    (timeID_em): Embedding(1440, 8)
  )
  (spatio_temporal): Net(
    (geo_conv): Net(
      (state_em): Embedding(2, 2)
      (process_coords): Linear(in_features=2, out_features=16, bias=True)
      (conv): Conv1d(16, 32, kernel_size=(3,), stride=(1,))
    )
    (rnn): LSTM(61, 128, num_layers=2, batch_first=True)
    (attr2atten): Linear(in_features=28, out_features=128, bias=True)
  )
  (entire_estimate): EntireEstimator(
    (input2hid): Linear(in_features=156, out_features=128, bias=True)
    (residuals): ModuleList(
      (0-2): 3 x Linear(in_features=128, out_features=128, bias=True)
    )
    (hid2out): Linear(in_features=128, out_features=1, bias=True)
  )
  (local_estimate): LocalEstimator(
    (input2hid): Linear(in_features=128, out_features=64, bias=True)
    (hid2hid): Linear(in_features=64, out_features=32, bias=True)
    (hid2out): Linear(in_features=32, out_features=1, bias=True)
  )
)
[('task', 'train'), ('batch_size', 10), ('epochs', 100), ('weight_file', './new_saved_weights/run_log_2024-01-31'), ('result_file', None), ('kernel_size', 3), ('pooling_method', 'attention'), ('alpha', 0.1), ('log_file', 'run_log_1_cpu')]
Training Epoch 0, File new_mapped_00, Loss 1.2295564413070679
Training Epoch 0, File new_mapped_01, Loss 0.7536181211471558
…
